NOTE:
1, trong repo goc, nguoi ta resize model tokens (them token pad) cho mo hinh + tokenizer, nhung toi thi ko.
2, Tai sao nguoi ta ko luu rotary emb khi split model?


LlamaForCausalLM(
  (model): LlamaModel(
    (embed_tokens): Embedding(32000, 5120)
    (layers): ModuleList(
      (0-39): 40 x LlamaDecoderLayer(
        (self_attn): LlamaAttention(
          (q_proj): Linear(in_features=5120, out_features=5120, bias=False)
          (k_proj): Linear(in_features=5120, out_features=5120, bias=False)
          (v_proj): Linear(in_features=5120, out_features=5120, bias=False)
          (o_proj): Linear(in_features=5120, out_features=5120, bias=False)
        )
        
        
        (mlp): LlamaMLP(
          (gate_proj): Linear(in_features=5120, out_features=13824, bias=False)
          (up_proj): Linear(in_features=5120, out_features=13824, bias=False)
          (down_proj): Linear(in_features=13824, out_features=5120, bias=False)
          (act_fn): SiLUActivation()
        )
        (input_layernorm): LlamaRMSNorm((5120,), eps=1e-05)
        (post_attention_layernorm): LlamaRMSNorm((5120,), eps=1e-05)
      )
    )
    (norm): LlamaRMSNorm((5120,), eps=1e-05)
    (rotary_emb): LlamaRotaryEmbedding()
  )
  (lm_head): Linear(in_features=5120, out_features=32000, bias=False)
)




Qwen3ForCausalLM(
  (model): Qwen3Model(
    (embed_tokens): Embedding(151936, 2048)
    (layers): ModuleList(
      (0-27): 28 x Qwen3DecoderLayer(
        (self_attn): Qwen3Attention(
          (q_proj): Linear(in_features=2048, out_features=2048, bias=False)
          (k_proj): Linear(in_features=2048, out_features=1024, bias=False)
          (v_proj): Linear(in_features=2048, out_features=1024, bias=False)
          (o_proj): Linear(in_features=2048, out_features=2048, bias=False)
          (q_norm): Qwen3RMSNorm((128,), eps=1e-06)
          (k_norm): Qwen3RMSNorm((128,), eps=1e-06)
        )
        (mlp): Qwen3MLP(
          (gate_proj): Linear(in_features=2048, out_features=6144, bias=False)
          (up_proj): Linear(in_features=2048, out_features=6144, bias=False)
          (down_proj): Linear(in_features=6144, out_features=2048, bias=False)
          (act_fn): SiLUActivation()
        )
        (input_layernorm): Qwen3RMSNorm((2048,), eps=1e-06)
        (post_attention_layernorm): Qwen3RMSNorm((2048,), eps=1e-06)
      )
    )
    (norm): Qwen3RMSNorm((2048,), eps=1e-06)
    (rotary_emb): Qwen3RotaryEmbedding()
  )
  (lm_head): Linear(in_features=2048, out_features=151936, bias=False)
)